Dataset : LFW (First 1000 persons - Non-uniform samples for each person : JPG format) 
-------------------------------------------------------------------------
Images length : 1936
_________________________________________________________________
Layer (type)                 Output Shape              Param #   
=================================================================
dense_13 (Dense)             (None, 512)               11520512  
_________________________________________________________________
activation_13 (Activation)   (None, 512)               0         
_________________________________________________________________
dropout_9 (Dropout)          (None, 512)               0         
_________________________________________________________________
dense_14 (Dense)             (None, 512)               262656    
_________________________________________________________________
activation_14 (Activation)   (None, 512)               0         
_________________________________________________________________
dropout_10 (Dropout)         (None, 512)               0         
_________________________________________________________________
dense_15 (Dense)             (None, 1000)              513000    
_________________________________________________________________
activation_15 (Activation)   (None, 1000)              0         
=================================================================
Total params: 12,296,168
Trainable params: 12,296,168
Non-trainable params: 0
_________________________________________________________________
None
C:\Users\MONIK\Anaconda3\lib\site-packages\keras\models.py:844: UserWarning: The `nb_epoch` argument in `fit` has been renamed `epochs`.
  warnings.warn('The `nb_epoch` argument in `fit` '
…
1742/1742 [==============================] - 22s - loss: 5.5015 - acc: 0.0586 - val_loss: 9.3961 - val_acc: 0.0619
Loss : 9.39606029471
Accuracy :0.0618556701031


+++++++++++++++++++++++++++++++++++++++++++++++++++++++++++++++++++++++++++++++++++++++++++++++++++++++++++++++++++++++++++++++++++++

Dataset : LFW (First 40 persons - Non-uniform samples for each person : JPG format) 
-------------------------------------------------------------------------
Images length : 76
_________________________________________________________________
Layer (type)                 Output Shape              Param #   
=================================================================
dense_16 (Dense)             (None, 512)               11520512  
_________________________________________________________________
activation_16 (Activation)   (None, 512)               0         
_________________________________________________________________
dropout_11 (Dropout)         (None, 512)               0         
_________________________________________________________________
dense_17 (Dense)             (None, 512)               262656    
_________________________________________________________________
activation_17 (Activation)   (None, 512)               0         
_________________________________________________________________
dropout_12 (Dropout)         (None, 512)               0         
_________________________________________________________________
dense_18 (Dense)             (None, 40)                20520     
_________________________________________________________________
activation_18 (Activation)   (None, 40)                0         
=================================================================
Total params: 11,803,688
Trainable params: 11,803,688
Non-trainable params: 0
_________________________________________________________________
None
C:\Users\MONIK\Anaconda3\lib\site-packages\keras\models.py:844: UserWarning: The `nb_epoch` argument in `fit` has been renamed `epochs`.
  warnings.warn('The `nb_epoch` argument in `fit` '
…
526/526 [==============================] - 1s - loss: 10.6429 - acc: 0.0133 - val_loss: 12.2733 - val_acc: 0.0339
32/59 [===============>..............] - ETA: 0s
Accuracy : 0.0338983053373



+++++++++++++++++++++++++++++++++++++++++++++++++++++++++++++++++++++++++++++++++++++++++++++++++++++++++++++++++++++++++++++++
Dataset : Yale Database 
-------------------------------------------------------------------------


Images length : 153
_________________________________________________________________
Layer (type)                 Output Shape              Param #   
=================================================================
dense_1 (Dense)              (None, 512)               11520512  
_________________________________________________________________
activation_1 (Activation)    (None, 512)               0         
_________________________________________________________________
dense_2 (Dense)              (None, 512)               262656    
_________________________________________________________________
activation_2 (Activation)    (None, 512)               0         
_________________________________________________________________
dense_3 (Dense)              (None, 14)                7182      
_________________________________________________________________
activation_3 (Activation)    (None, 14)                0         
=================================================================
Total params: 11,790,350
Trainable params: 11,790,350
Non-trainable params: 0
_________________________________________________________________
None
C:\Users\MONIK\Anaconda3\lib\site-packages\keras\models.py:844: UserWarning: The `nb_epoch` argument in `fit` has been renamed `epochs`.
  warnings.warn('The `nb_epoch` argument in `fit` '
…
